public/models/onxx/digit/model.onnx (onnx, 902956 bytes, 8 tensors)

sequential/dense_1/MatMul/ReadVariableOp:0 f4 [128, 10]
0.19902068 -0.07021461 0.17012785 -0.07761005 -0.13195057 -0.0039900355 0.060555227 -0.13428667
-0.25611782 -0.16329165 -0.017355092 0.21497421 0.18224065 -0.09480148 -0.18100818 0.20096876
-0.10882043 -0.087792516 0.019751165 -0.029037412 -0.13865608 -0.2716902 -0.024874935 0.084214956
0.1442256 -0.10454278 0.17164245 -0.025462948 0.07556065 -0.2934354 0.21118915 -0.094033375
-0.026876576 0.0405698 -0.16900055 0.21440628 0.118629836 0.05157892 0.08552712 -0.17298093
0.0779221 0.0144055635 0.09061346 0.1484968 0.1261007 -0.05650164 0.054082185 0.102097474
-0.17115438 0.015588301 -0.17910168 0.15914777 -0.026729288 0.030996108 -0.18909541 0.18710648
0.23690733 0.13983704 0.06764428 -0.19195196 0.1189682 0.2411985 -0.10925583 0.08942265
-0.1540163 0.07686287 -0.08193129 0.26267552 -0.222246 -0.27879718 -0.15271373 -0.029800475
0.1664116 0.025072386 0.12798546 -0.059598766 0.17293864 0.06701565 0.07584407 -0.14703049
-0.036857445 -0.109094016 -0.084284715 -0.17916271 0.10757042 0.15179631 -0.003958006 -0.1533541
0.17383982 0.028095974 -0.29741502 -0.20250277 -0.22881663 0.19741084 0.046650764 -0.08226928
0.12612303 -0.24961396 -0.05423065 -0.24394332 0.021633089 -0.16495804 -0.282588 0.091089696
-0.15913047 -0.05371479 0.21946715 -0.06097746 -0.016335243 0.012813995 0.14389968 0.03722348
0.14358164 -0.05839235 -0.064022064 0.20302624 -0.03732785 -0.17460196 -0.17747714 0.15119176
0.10592753 -0.05480357 0.06930911 0.036599718 0.11928057 0.10377092 -0.27163878 0.23470977
-0.17625006 -0.028853776 -0.14437284 0.13389 0.12234708 0.15150249 0.18495998 0.10247899
0.14563584 -0.04496755 0.11654765 -0.0012024532 0.14775597 0.104122065 0.1640724 0.14921892
-0.2441936 -0.000107097534 -0.02356778 0.12098626 -0.2084803 -0.021205042 -0.032081515 -0.021617327
-0.03761354 0.11625386 -0.12708813 -0.13543844 -0.2038923 -0.06532017 0.067628 0.039198242
-0.17382447 0.045779873 -0.01675945 -0.1333345 0.18175516 0.032846563 -0.03565976 0.081559174
-0.23239698 -0.17382908 -0.04604529 -0.19412626 -0.013099259 0.17641011 0.014328664 0.18958169
-0.23130576 0.16232225 -0.022079295 0.118205614 0.042853907 0.076226465 -0.11015902 0.03737516
-0.042902246 0.05841701 0.050225183 -0.16422822 0.14714195 -0.06252967 -0.23885444 -0.32075295
-0.0068511427 0.17361556 0.11085486 0.13908254 0.08308571 -0.074899934 0.1297417 0.055910975
0.21356896 -0.3044651 -0.17750826 0.039096035 -0.112248234 0.15390898 -0.14968483 -0.20009601
0.14507605 0.17033584 0.03441085 -0.022820672 0.10587868 0.018082354 -0.07139196 0.043021895
-0.08794359 -0.07577677 -0.12677513 0.055978756 0.1738414 -0.14015296 0.092240095 -0.084751256
0.14860035 0.20081094 0.15166204 -0.21037714 0.15040408 -0.04885581 -0.026380774 -0.049347904
0.118991405 -0.22838141 0.054394796 0.010735551 0.10262948 -0.09785373 -0.08610909 0.18875931
0.052899912 -0.058443855 -0.007187842 -0.20045282 -0.089676894 -0.029543202 0.12167355 -0.25210327
0.11603787 -0.017373998 0.14442556 0.23722835 0.20258354 0.07081749 0.07668422 -0.1737929
00000000: 14cc 4b3e adcc 8fbd ff35 2e3e 05f2 9ebd
00000010: 0d1e 07be d8be 82bb c208 783d 7282 09be
00000020: e021 83be ed35 27be 442c 8ebc 3322 5c3e
00000030: 4b9d 3a3e 4727 c2bd 355a 39be c1ca 4d3e
00000040: 3fdd debd 90cc b3bd 32cd a13c dedf edbc
00000050: dcfb 0dbe fa1a 8bbe 85c6 cbbc e478 ac3d
00000060: e0af 133e 861a d6bd 0ac3 2f3e ac97 d0bc
00000070: 8bbf 9a3d 2a3d 96be f841 583e 9294 c0bd
00000080: 442c dcbc 852c 263d 7b0e 2dbe 528d 5b3e
00000090: 33f4 f23d 6b44 533d d828 af3d ea21 31be
000000a0: 9f95 9f3d 5005 6c3c 8d93 b93d 8c0f 183e
000000b0: 8b20 013e 436e 67bd 4885 5d3d 7b18 d13d
000000c0: 1843 2fbe 1366 7f3c 6e66 37be a2f7 223e
000000d0: 61f7 dabc 8deb fd3c 3aa2 41be d798 3f3e
000000e0: d697 723e 7131 0f3e 1689 8a3d 0e8f 44be
000000f0: 9aa5 f33d bdfc 763e 85c1 dfbd 3923 b73d
00000100: 73b6 1dbe 486a 9d3d 98cb a7bd 687d 863e
00000110: 7594 63be 81be 8ebe fd60 1cbe 2020 f4bc
00000120: cd67 2a3e 9b64 cd3c 9f0e 033e d61d 74bd
00000130: d416 313e 803f 893d 2354 9b3d 298f 16be
00000140: d5f7 16bd af6c dfbd 779d acbd 6e76 37be
00000150: e14d dc3d 7e70 1b3e 29b2 81bb db08 1dbe
00000160: 1103 323e 8729 e63c c846 98be e35c 4fbe
00000170: e84e 6abe 1126 4a3e df14 3f3d cc7c a8bd
00000180: 6526 013e cd9a 7fbe f520 5ebd 47cc 79be
00000190: e037 b13c c3ea 28be 60af 90be 3c8d ba3d
000001a0: 19f3 22be 0a04 5cbd ffbb 603e 80c3 79bd
000001b0: 7dd1 85bc caf1 513c 705a 133e a677 183d
000001c0: 1107 133e d12c 6fbd 001e 83bd 1ce6 4f3e
000001d0: 16e5 18bd dbca 32be 91bc 35be 03d2 1a3e
000001e0: 88f0 d83d b579 60bd eff1 8d3d 96e9 153d
000001f0: 5f49 f43d d985 d43d 3d14 8bbe c257 703e
00000200: e57a 34be c15e ecbc 79d6 13be 761a 093e
00000210: 1b91 fa3d 7823 1b3e 2666 3d3e 81e0 d13d
00000220: 9021 153e e52f 38bd 89b0 ee3d a29b 9dba
00000230: 574d 173e f33d d53d 9802 283e d8cc 183e
00000240: e30d 7abe 8d99 e0b8 3811 c1bc a5c7 f73d
00000250: dc7b 55be 32b6 adbc e867 03bd d216 b1bc
00000260: a810 1abd 8116 ee3d 6423 02be 60b0 0abe
00000270: 25c9 50be 95c6 85bd 8d80 8a3d 568e 203d
00000280: 0bff 31be ad83 3b3d 1d4b 89bc d788 08be
00000290: 061e 3a3e 1e8a 063d f80f 12bd 7f08 a73d
000002a0: 79f9 6dbe 4000 32be fc99 3cbd 09c9 46be
000002b0: 469e 56bc daa4 343e c6c2 6a3c b421 423e
000002c0: 6bdb 6cbe ce37 263e a3df b4bc c915 f23d
000002d0: 9487 2f3d 9f1c 9c3d 0d9b e1bd b216 193d
000002e0: 44ba 2fbd ad46 6f3d ecb8 4d3d 712b 28be
000002f0: 61ac 163e 8e0f 80bd 4296 74be bb39 a4be
00000300: 8d7f e0bb 47c8 313e df07 e33d a76b 0e3e
00000310: d728 aa3d 2365 99bd 02db 043e e802 653d
00000320: d2b1 5a3e d9e2 9bbe bac4 35be 2a23 203d
00000330: 67e2 e5bd 519a 1d3e fb46 19be f8e5 4cbe
00000340: d18e 143e 856c 2e3e 64f2 0c3d 6bf2 babc
00000350: ecd6 d83d 7221 943c f335 92bd ba37 303d
00000360: c51b b4bd da30 9bbd 57d1 01be fb49 653d
00000370: 7b03 323e 4284 0fbe 60e8 bc3d 1192 adbd
00000380: b12a 183e 62a1 4d3e 4b4d 1b3e 1b6d 57be
00000390: 8703 1a3e 081d 48bd 7e1c d8bc 0721 4abd
000003a0: c4b1 f33d d1dc 69be 14cd 5e3d 2ae4 2f3c
000003b0: 682f d23d 8967 c8bd f659 b0bd 1f4a 413e
000003c0: 94ad 583d d362 6fbd fd87 ebbb 8143 4dbe
000003d0: 85a8 b7bd 9604 f2bc fb2f f93d ae13 81be
000003e0: 43a5 ed3d ea53 8ebc 4be4 133e fdeb 723e
000003f0: 0f72 4f3e c308 913d 9e0c 9d3d c4f6 31be

sequential/dense_1/BiasAdd/ReadVariableOp:0 f4 [10]
0.021284 0.042322516 -0.0011297041 -0.021526039 -0.010542718 0.0010018888 -0.01419187 0.012307964
-0.022627167 0.008718543
00000000: c85b ae3c 605a 2d3d 9412 94ba 6057 b0bc
00000010: 5dbb 2cbc cf51 833a 0485 68bc 58a7 493c
00000020: 9c5c b9bc 38d8 0e3c

sequential/dense/MatMul/ReadVariableOp:0 f4 [1600, 128]
0.016305927 -0.022234853 -0.03435881 0.030740498 -0.07976958 0.05609572 0.03448376 0.056580983
0.012632936 -0.020729788 0.04884956 -0.070796065 0.03184065 -0.046050303 -0.0020104288 0.051103726
0.013627545 0.0286811 -0.019333433 -0.020932062 -0.00996012 -0.049751204 -0.058621526 -0.018539881
0.032344695 -0.033408392 -0.061978977 -0.003683301 0.072807215 -0.070471585 0.06582915 -0.01981634
0.032070536 0.021252254 -0.041340124 0.02502587 -0.053440355 -0.012410055 0.07062583 0.009751589
0.046245836 -0.009609518 0.01975809 -0.026473548 -0.0025088936 -0.01185264 0.022079999 -0.0024025633
0.04917228 -0.0048885727 0.046608027 0.042163856 -0.039062295 0.0027204815 -0.02715316 -0.06305955
0.015116313 -0.091022834 -0.035769615 -0.021124 -0.01965504 -0.054250114 -0.037829164 -0.020847954
-0.013267874 0.09235357 -0.06304376 -0.047403947 0.030201277 0.050626893 0.035430726 -0.020474063
0.012645819 0.019204536 -0.05006162 -0.063259214 -0.017010454 -0.06329581 -0.012765403 -0.028804911
0.027160982 -0.063317135 0.030817838 -0.0346324 0.05751588 0.02717217 -0.09539799 -0.054260932
-0.065421134 -0.058328662 0.029121784 0.062447555 -0.042280417 -0.05352408 0.049237687 -0.048541244
0.08485994 -0.03372708 -0.021971922 -0.027221559 0.0016308847 0.033126023 0.011590753 0.033527568
-0.0019321541 -0.06157722 0.012440824 -0.05643274 0.06040925 0.030790389 -0.0065724063 -0.037908908
-0.0011640493 0.037643395 -0.06389138 -0.037649486 0.0005325494 -0.040824767 0.038274642 -0.054787032
0.05221414 -0.062990025 0.055395976 0.049214322 0.049137466 0.012431521 -0.0391572 0.047032457
0.002369844 0.034587927 0.049912248 0.04699071 -0.02547378 0.07311935 -0.056422427 -0.028289728
-0.0327235 0.038989983 0.0136945 0.050873738 -0.009107533 0.03288782 0.019441279 -0.03397084
-0.042981796 -0.01511842 -0.063278526 -0.043521326 -0.042033214 0.030219667 -0.042373132 0.0002612597
-0.023598827 -0.038588382 0.038510874 0.017863763 -0.0031083534 -0.02750124 -0.03720795 0.0033251522
-0.05202723 -0.011646945 -0.0046235183 -0.030309945 0.029815191 -0.060559526 -0.04008622 0.003482585
-0.05413568 0.035344087 0.05801891 -0.0120397145 -0.031923745 0.048724446 0.055150073 0.008389369
-0.07062247 -0.005241012 0.065691434 0.028802004 -0.045637276 -0.0046305857 0.055375874 -0.046415824
-0.034678992 0.0031181953 0.005782909 -0.014888634 -0.024131112 -0.021441361 -0.020195276 0.057302635
-0.024145095 0.03371217 -0.011672317 0.040199835 0.07878844 -0.05783382 0.027808677 -0.036575813
0.020870466 0.025760088 0.028294606 0.0024045827 0.074630015 -0.043601003 -0.03943396 -0.010648581
0.013925385 -0.007154551 0.048693486 -0.009119894 -0.022930246 -0.016268963 -0.05998948 0.042692814
0.042449404 0.0006713497 0.039451584 -0.024833564 -0.009276743 0.020830654 0.021364782 -0.012837934
-0.03705983 -0.0011096764 0.038369343 0.040526196 0.014963235 -0.028570265 0.02360647 0.009241873
-0.028599638 0.040329173 0.0072733397 0.05981307 0.06785899 0.039370228 -0.029413968 -0.028322188
-0.014634045 0.03182629 0.04888667 -0.005651579 -0.00081259105 0.005256396 0.039172836 0.029749706
-0.008231333 0.0098298155 -0.039139576 0.04093274 -0.006867748 -0.015621332 0.034658972 0.038781453
00000000: 0294 853c de25 b6bc d3bb 0cbd 7fd3 fb3c
00000010: 3c5e a3bd a0c4 653d d83e 0d3d 76c1 673d
00000020: 60fa 4e3c 84d1 a9bc 7a16 483d 87fd 90bd
00000030: 576b 023d 3e9f 3cbd 66c1 03bb 2452 513d
00000040: 1146 5f3c a0f4 ea3c 2661 9ebc b779 abbc
00000050: c52f 23bc ebc7 4bbd 201d 70bd f3e0 97bc
00000060: df7b 043d 3dd7 08bd abdd 7dbd 8963 71bb
00000070: f31b 953d 6853 90bd 6fd1 863d e155 a2bc
00000080: 655c 033d 3519 ae3c 4354 29bd 0e03 cd3c
00000090: 46e4 5abd 8b53 4bbc 46a4 903d 21c5 1f3c
000000a0: 466c 3d3d 3d71 1dbc b8db a13c 0edf d8bc
000000b0: 406c 24bb 9331 42bc 1de1 b43c 5374 1dbb
000000c0: df68 493d 5230 a0bb 0fe8 3e3d 02b4 2c3d
000000d0: c9ff 1fbd 1b4a 323b 4e70 debc 5e25 81bd
000000e0: 69aa 773c 2e6a babd 2983 12bd 3d0c adbc
000000f0: 9b03 a1bc 5e35 5ebd c1f2 1abd 54c9 aabc
00000100: 7f61 59bc de23 bd3d 161d 81bd a42a 42bd
00000110: ab68 f73c 255e 4f3d cf1f 113d 39b9 a7bc
00000120: 6930 4f3c d552 9d3c 6a0d 4dbd 0c8e 81bd
00000130: 8259 8bbc 3ca1 81bd fb25 51bc 47f8 ebbc
00000140: b580 de3c 6aac 81bd b175 fc3c b4da 0dbd
00000150: c595 6b3d 2c98 de3c 0560 c3bd b640 5ebd
00000160: 84fb 85bd 09ea 6ebd cf90 ee3c 02c9 7f3d
00000170: 3b2e 2dbd 113c 5bbd 75ad 493d 2fd3 46bd
00000180: 0ccb ad3d 6825 0abd 76fe b3bc bfff debc
00000190: 69c3 d53a 27af 073d 24e7 3d3c 3454 093d
000001a0: 5540 fdba 6538 7cbd 99d4 4b3c 0426 67bd
000001b0: b16f 773d 203c fc3c 575d d7bb 5f46 1bbd
000001c0: 0393 98ba f62f 1a3d 7cd9 82bd 5936 1abd
000001d0: c99a 0b3a df37 27bd dfc5 1c3d 5e68 60bd
000001e0: 7ede 553d ea00 81bd e4e6 623d f594 493d
000001f0: 5e44 493d 94ad 4b3c 4d63 20bd 1ba5 403d
00000200: 624f 1b3b 12ac 0d3d c970 4c3d 5579 403d
00000210: 64ae d0bc 99bf 953d 341b 67bd dcbf e7bc
00000220: 1409 06bd f6b3 1f3d e55e 603c fb60 503d
00000230: c337 15bc 61b5 063d 5143 9f3c 0225 0bbd
00000240: ae0d 30bd 40b3 77bc 2c98 81bd 6b43 32bd
00000250: 052b 2cbd 3c8f f73c 738f 2dbd aff9 8839
00000260: 5452 c1bc da0e 1ebd 94bd 1d3d 0757 923c
00000270: 84b5 4bbb 484a e1bc 5d67 18bd ccea 593b
00000280: 811a 55bd d4d2 3ebc e280 97bb 904c f8bc
00000290: fd3e f43c 440d 78bd 7331 24bd 153c 643b
000002a0: 60bd 5dbd f6c4 103d 3da5 6d3d 3942 45bc
000002b0: 79c2 02bd 4993 473d 0be5 613d 9073 093c
000002c0: 83a2 90bd ccbc abbb 3b89 863d 2ef2 eb3c
000002d0: 27ee 3abd 2bbc 97bb d0d1 623d 851e 3ebd
000002e0: 8f0b 0ebd a35a 4c3b 8f7e bd3b 75ef 73bc
000002f0: 9cae c5bc cba5 afbc 9070 a5bc 2bb6 6a3d
00000300: efcb c5bc c615 0a3d 3f3d 3fbc 95a8 243d
00000310: d55b a13d 28e3 6cbd 06cf e33c 85d0 15bd
00000320: 8af8 aa3c d206 d33c 17ca e73c 3496 1d3b
00000330: 9fd7 983d f796 32bd 8185 21bd 6377 2ebc
00000340: 4c27 643c b970 eabb d272 473d 9c6b 15bc
00000350: 36d8 bbbc 7d46 85bc 87b7 75bd a9de 2e3d
00000360: 6ddf 2d3d 84fd 2f3a fc97 213d c26f cbbc
00000370: 7bfd 17bc 0ca5 aa3c 3205 af3c 3356 52bc
00000380: 0ccc 17bd 9072 91ba 2c29 1d3d ccfe 253d
00000390: 5b28 753c 300c eabc 5b62 c13c 3a6b 173c
000003a0: ca49 eabc 3430 253d 3255 ee3b 8dfe 743d
000003b0: a7f9 8a3d ad42 213d 90f5 f0bc ef03 e8bc
000003c0: a2c3 6fbc 495c 023d 643d 483d e130 b9bb
000003d0: 1004 55ba d83d ac3b b273 203d a8b5 f33c
000003e0: b7dc 06bc 3c0d 213c d250 20bd 17a9 273d
000003f0: d90a e1bb 9ef0 7fbc 91f6 0d3d 4dd9 1e3d

sequential/dense/BiasAdd/ReadVariableOp:0 f4 [128]
0.010270331 0.022286927 -0.018154126 0.010586388 0.0062548476 0.021303294 0.021075306 -0.008041868
-0.007852776 -0.012189334 0.0040622745 0.018641006 0.015096403 -0.007900757 0.01790753 -0.0054151765
0.014382911 -0.006350409 -0.01302245 -0.037451547 -0.0022257701 -0.007527801 -0.0069046263 0.013293511
0.004155679 0.030958416 -0.027206428 0.009155946 -0.00029901438 0.008819093 0.02452188 0.03140996
0.028929424 0.0015299674 -0.0041577285 -0.008910209 0.035032418 -0.010121138 0.0010358284 -0.020039031
-0.01805404 -0.015126448 0.00031799212 0.003951154 -0.017270073 0.022350745 0.015934914 0.021429304
0.0008232211 0.0015406953 0.0018867509 -0.016595015 0.0049562473 -0.028983075 0.0017017768 -0.00062744186
0.0103639 9.042722e-05 -0.030586325 0.02415243 -0.024331484 0.005785267 0.002346521 0.022075227
-0.0084191905 0.01195831 0.023814185 -0.0087304 0.020007985 -0.01240689 -0.0060213143 -0.0041263686
-0.013634648 0.014823922 0.035674963 0.021633215 0.0020404498 -0.00908609 0.023129007 -0.012368388
0.012739216 -0.009093992 0.015375851 -0.0008214742 -0.023377694 -0.0037576803 0.00517685 0.020951292
-0.01294759 0.001224136 -0.0052092937 -0.009957797 -0.008296247 -0.005780416 -0.008940387 -0.0056593996
0.021887088 0.029770484 0.02070756 -0.009111427 -0.0073052677 -0.017061803 -0.003877331 0.0028529314
-0.023994535 -0.005125044 0.0029557375 0.01842978 -0.009781865 0.03073463 0.030715901 0.010892449
-0.008818058 0.019935725 0.014381909 -0.006089172 -0.006404936 -0.0073591117 -0.0074578486 -0.005324913
-0.008262626 0.008742675 0.017718695 0.023906086 -0.0018765089 -0.017270742 -0.0069022053 0.005321249
00000000: e444 283c 1393 b63c f6b7 94bc 8872 2d3c
00000010: 77f5 cc3b 3f84 ae3c 1fa6 ac3c 0ac2 03bc
00000020: eea8 00bc c6b5 47bc d41c 853b 06b5 983c
00000030: e756 773c 2d72 01bc d0b2 923c cb71 b1bb
00000040: 4da6 6b3c 1717 d0bb 1d5c 55bc cb66 19bd
00000050: 3ade 11bb c6ab f6bb 3440 e2bb 07cd 593c
00000060: 5d2c 883b 819c fd3c 04e0 debc d202 163c
00000070: 08c5 9cb9 f57d 103c 1ce2 c83c bba7 003d
00000080: 66fd ec3c 3089 c83a 8e3d 88bb 20fc 11bc
00000090: 277e 0f3d 21d3 25bc a2c4 873a e528 a4bc
000000a0: 11e6 93bc ecd4 77bc 2eb8 a639 af78 813b
000000b0: f879 8dbc e918 b73c f089 823c 828c af3c
000000c0: 6fcd 573a 28f1 c93a db4c f73a 45f2 87bc
000000d0: 0468 a23b ea6d edbc 270e df3a e97a 24ba
000000e0: 59cd 293c bea3 bd38 2c90 fabc 51db c53c
000000f0: d252 c7bc 5692 bd3b 17c8 193b 1bd7 b43c
00000100: a5f0 09bc caec 433c f715 c33c f409 0fbc
00000110: c9e7 a33c 4546 4bbc 724e c5bb 7d36 87bb
00000120: dc63 5fbc 09e0 723c e91f 123d 2438 b13c
00000130: 11b9 053b d3dd 14bc 0b79 bd3c c7a4 4abc
00000140: 25b8 503c f8fe 14bc feea 7b3c 3358 57ba
00000150: 9482 bfbc 6a43 76bb 91a2 a93b 0ba2 ab3c
00000160: 2122 54bc 3073 a03a b9b2 aabb 0726 23bc
00000170: fbec 07bc a569 bdbb b37a 12bc 7c72 b9bb
00000180: 8d4c b33c 3be1 f33c e7a2 a93c 1848 15bc
00000190: 0761 efbb 32c5 8bbc d21a 7ebb 3ff8 3a3b
000001a0: 3090 c4bc fcef a7bb 0cb5 413b 0dfa 963c
000001b0: 1e44 20bc 31c7 fb3c ea9f fb3c 3e76 323c
000001c0: 9e79 10bc 3f50 a33c 19a2 6b3c ad87 c7bb
000001d0: 7fe0 d1bb b424 f1bb f860 f4bb 9c7c aebb
000001e0: f75f 07bc 703d 0f3c cc26 913c b2d6 c33c
000001f0: 31f5 f5ba 5f7b 8dbc e52b e2bb df5d ae3b

sequential/conv2d_1/Conv2D/ReadVariableOp:0 f4 [64, 32, 3, 3]
-0.08923944 0.0126487175 0.073914625 -0.090345964 -0.20836316 -0.11397913 -0.17223294 -0.05965408
-0.003529751 -0.009957283 -0.08844178 -0.08004025 0.026856892 -0.09985615 0.0065447567 0.103841364
-0.012678592 0.053516615 -0.055415444 0.09918693 0.051019788 -0.10636286 -0.11927674 0.012381089
0.017056763 -0.07550845 0.08125399 0.055456094 0.012535459 -0.023902824 -0.13454473 -0.07216551
0.03495988 -0.15537953 0.025972726 -0.19120112 -0.19423196 -0.0035660204 -0.11048776 -0.18563618
-0.08262624 -0.1081449 0.052274 0.0055782828 0.16744472 0.04038633 0.004334832 0.019187322
-0.02639944 0.039384518 0.04980103 0.012052313 0.12655622 0.09349904 -0.008269532 0.184171
0.02955662 -0.052824568 -0.010035227 0.059646137 -0.07025419 0.019464087 -0.04740809 0.12881263
-0.021744357 -0.045430444 -0.02205203 -0.033455834 0.08482115 -0.036236405 0.06681376 -0.11196401
0.10995599 0.20671065 0.08065932 -0.054308333 -0.15280305 0.08222143 -0.09156392 0.03367519
0.11772429 0.07567793 -0.0051289257 -0.020028638 0.057377856 0.0965384 0.057193283 -0.0032489742
-0.028098326 -0.13995543 0.033098657 0.15214276 0.044097424 -0.19229175 -0.12213523 0.02008731
0.020219842 0.025323173 0.21122824 0.1396081 -0.04809735 -0.07713064 0.0022599122 -0.26099804
-0.08934418 -0.10562691 -0.2645073 -0.18851411 -0.00047374488 -0.07806364 0.06255431 0.01623725
0.037444245 0.09256551 -0.114638306 -0.012468394 -0.17765895 0.0052077766 0.052746065 0.014355152
0.073506534 -0.04010389 -0.019365493 0.010308314 0.05633937 0.075718656 -0.045060776 -0.028390901
-0.0741162 -0.03517851 -0.09749396 -0.026275095 0.018300047 -0.07273932 0.061102506 -0.03798934
0.018754782 0.06754035 -0.008376864 -0.008170001 0.04703377 0.030867236 -0.03693276 0.10413862
0.16165046 0.06499842 0.10902217 -0.09117916 -0.14334115 -0.038402002 -0.24843587 -0.26887646
-0.09078181 0.036349818 0.0054342356 0.0536892 0.11134935 -0.028274614 0.08141479 0.071367174
0.053879686 0.08702684 0.10999157 0.114577144 0.045212783 -0.0457027 -0.078059085 0.14562261
-0.2052635 -0.07932011 -0.08391293 0.05026415 -0.0019234511 -0.07757111 -0.044411257 0.054420415
0.07900183 0.023901181 0.038965262 0.115175754 0.009579942 0.00092202134 -0.070548065 0.06758898
0.015636373 0.029052198 0.054100525 -0.07775935 -0.012821198 -0.0004998664 -0.031014238 0.1572141
-0.17962638 -0.23113205 0.082537055 -0.30897197 -0.21983911 -0.16906591 0.05816783 0.056560516
0.008497747 0.007468455 0.028063457 0.073179424 0.103505075 -0.032472506 0.024019292 -0.056092195
0.058419395 -0.003720621 -0.023164732 -0.06294136 -0.09287232 0.029199865 -0.029231092 -0.13938421
0.13679259 0.03921897 -0.052831057 0.033350606 -0.04832466 0.059373215 -0.15326662 -0.20269549
-0.15976682 0.069131896 0.020352988 -0.033655737 0.027754495 0.06280042 -0.06508722 0.11055906
0.057907123 -0.012692478 0.019928234 0.029672265 -0.005215551 -0.010387859 -0.16713864 -0.0805429
-0.10075858 -0.09401139 -0.010128204 -0.15431583 -0.06547413 0.023986178 -0.06780524 -0.0222923
0.043037627 -0.03743266 0.042800434 -0.022591457 0.04965337 0.19468795 0.12704962 0.02426574
00000000: 2bc3 b6bd 913c 4f3c 8d60 973d 4e07 b9bd
00000010: 275d 55be e46d e9bd d55d 30be d657 74bd
00000020: 6553 67bb df23 23bc f720 b5bd 25ec a3bd
00000030: fc02 dc3c 6281 ccbd 6675 d63b c8aa d43d
00000040: deb9 4fbc 3d34 5b3d 4efb 62bd 8422 cb3d
00000050: 20fa 503d c5d4 d9bd 5d47 f4bd 0dda 4a3c
00000060: a0ba 8b3c 2da4 9abd 7e68 a63d ee25 633d
00000070: 8761 4d3c dbcf c3bc 18c6 09be 83cb 93bd
00000080: 1732 0f3d d01b 1fbe c1c4 d43c 3aca 43be
00000090: bee4 46be e5b3 69bb 6847 e2bd 6917 3ebe
000000a0: f237 a9bd 137b ddbd 431d 563d 07ca b63b
000000b0: a176 2b3e 236c 253d 350b 8e3b bb2e 9d3c
000000c0: a343 d8bc a951 213d 2afc 4b3d 1177 453c
000000d0: f497 013e 6d7c bf3d ee7c 07bc 5397 3c3e
000000e0: ba20 f23c 935e 58bd cb6a 24bc 824f 743d
000000f0: 6ee1 8fbd 2673 9f3c fc2e 42bd 75e7 033e
00000100: 3921 b2bc 4615 3abd 75a6 b4bc fc08 09bd
00000110: b6b6 ad3d a06c 14bd a7d5 883d 634d e5bd
00000120: 9b30 e13d f5ab 533e b730 a53d 6a72 5ebd
00000130: 6778 1cbe b663 a83d dd85 bbbd ffee 093d
00000140: 6f19 f13d 08fd 9a3d 8c10 a8bb 1913 a4bc
00000150: 0b05 6b3d edb5 c53d 8143 6a3d beec 54bb
00000160: 762e e6bc 7a50 0fbe 7592 073d 50cb 1b3e
00000170: 809f 343d 21e8 44be 0922 fabd 248e a43c
00000180: 15a4 a53c 8b72 cf3c 374c 583e 6df5 0e3e
00000190: ba01 45bd abf6 9dbd 091b 143b 89a1 85be
000001a0: 15fa b6bd ec52 d8bd 806d 87be d809 41be
000001b0: f660 f8b9 d4df 9fbd 791c 803d fb03 853c
000001c0: 235f 193d fc92 bd3d 7dc7 eabd 3c48 4cbc
000001d0: 3aec 35be ffa5 aa3b 420c 583d df31 6b3c
000001e0: 988a 963d fa43 24bd 62a4 9ebc 34e4 283c
000001f0: 1cc4 663d 6212 9b3d a691 38bd 0994 e8bc
00000200: 3cca 97bd 5717 10bd eaaa c7bd de3e d7bc
00000210: fbe9 953c 5af8 94bd 9f46 7a3d b69a 1bbd
00000220: a1a3 993c 9852 8a3d 1d3f 09bc 78db 05bc
00000230: 7ba6 403d 49dd fc3c ce46 17bd a146 d53d
00000240: b387 253e e41d 853d 0447 df3d 24bc babd
00000250: 06c8 12be 6b4b 1dbd f965 7ebe 2daa 89be
00000260: d0eb b9bd 8ce3 143d ac11 b23b 35e9 5b3d
00000270: 210b e43d 2aa0 e7bc ccbc a63d f428 923d
00000280: f2b0 5c3d 213b b23d 4343 e13d 6ca7 ea3d
00000290: 0a31 393d c132 3bbd 71dd 9fbd 181e 153e
000002a0: 9830 52be 9572 a2bd 8bda abbd c8e1 4d3d
000002b0: 4f1c fcba 9add 9ebd 94e8 35bd f1e7 5e3d
000002c0: b6cb a13d 69cc c33c 0a9a 1f3d 44e1 eb3d
000002d0: 30f5 1c3c ceb3 713a 817b 90bd 176c 8a3d
000002e0: da17 803c e0fe ed3c 8398 5d3d 4b40 9fbd
000002f0: 0110 52bc 7709 03ba 9211 febc bcfc 203e
00000300: faef 37be e1ad 6cbe 3009 a93d 9331 9ebe
00000310: 811d 61be 9d1f 2dbe 6441 6e3d 00ac 673d
00000320: 223a 0b3c f1b9 f43b 56e5 e53c 18df 953d
00000330: 78fa d33d e401 05bd 1bc4 c43c eec0 65bd
00000340: 2d49 6f3d aad5 73bb f7c3 bdbc 66e7 80bd
00000350: d833 bebd 8e34 ef3c 0b76 efbc bcba 0ebe
00000360: 5b13 0c3e 12a4 203d 6165 58bd a59a 083d
00000370: 14f0 45bd 5431 733d edf1 1cbe 688f 4fbe
00000380: ea99 23be 0695 8d3d 4fbb a63c 99da 09bd
00000390: 655d e33c 829d 803d 734c 85bd ca6c e23d
000003a0: 0530 6d3d 1cf4 4fbc 8940 a33c 4013 f33c
000003b0: 36e7 aabb d731 2abc 6426 2bbe adf3 a4bd
000003c0: 845a cebd 0b89 c0bd c4f0 25bc f804 1ebe
000003d0: 4d17 86bd a97e c43c 79dd 8abd 579e b6bc
000003e0: 3948 303d fd52 19bd 824f 2f3d b811 b9bc
000003f0: 5561 4b3d 475c 473e 4c19 023e f2c8 c63c

sequential/conv2d_1/BiasAdd/ReadVariableOp:0 f4 [64]
-0.03076529 -0.06025258 -0.0075073848 0.032416403 -0.03816283 -0.022250617 -0.01901353 -0.011104237
-0.046676166 0.028152363 -0.051089752 -0.052911486 -0.047819603 -0.005237972 -0.04144544 0.0039660656
0.01282738 -0.03325655 -0.026321113 0.016686862 -0.017111642 -0.012601009 0.02287722 -0.014144938
-0.01988855 -0.00970264 -0.046269998 0.0130670555 -0.0062882267 -0.0053751916 -0.04516414 -0.009842105
-0.041103028 0.0014555408 -0.0005065754 -0.008909596 -0.012365799 -0.049406946 -0.0038277016 0.0018495228
-0.011297372 -0.00011589714 -0.0203032 -0.026319936 -0.05766734 0.008569451 -0.04626686 -0.00069487264
0.02056188 -0.014837805 -0.03657525 -0.0048874086 -0.010493175 -0.03133584 0.021710299 -0.06039642
0.0005695345 -0.006752551 -0.00022277102 -0.04144579 -0.06674721 -0.007464401 0.022188876 0.0016307568
00000000: 7d07 fcbc 69cb 76bd 8200 f6bb 10c7 043d
00000010: a150 1cbd ed46 b6bc 43c2 9bbc 8cee 35bc
00000020: 822f 3fbd c99f e63c 7d43 51bd b7b9 58bd
00000030: 7dde 43bd 4ba3 abbb b2c2 29bd c5f5 813b
00000040: ee29 523c 0538 08bd 609f d7bc e3b2 883c
00000050: b72d 8cbc 7674 4ebc 0269 bb3c 2cc0 67bc
00000060: 50ed a2bc d2f7 1ebc 9c85 3dbd 3417 563c
00000070: 780d cebb 6022 b0bb 09fe 38bd c840 21bc
00000080: a65b 28bd d8c7 be3a b3cb 04ba 8ef9 11bc
00000090: ec99 4abc f05e 4abd 2dda 7abb b06b f23a
000000a0: 9d18 39bc ce0d f3b8 e652 a6bc e89c d7bc
000000b0: 9734 6cbd e266 0c3c 5282 3dbd 1d28 36ba
000000c0: 6371 a83c 441a 73bc eecf 15bd 8e26 a0bb
000000d0: 91eb 2bbc 025a 00bd ccd9 b13c 3d62 77bd
000000e0: d04c 153a 8144 ddbb a497 69b9 10c3 29bd
000000f0: c3b2 88bd ef97 f4bb 72c5 b53c 1ebf d53a

sequential/conv2d/Conv2D/ReadVariableOp:0 f4 [32, 1, 3, 3]
0.19595389 -0.0038242645 -0.21767046 0.17704289 0.08135346 -0.2640063 0.09772001 -0.1694026
-0.28847453 0.11299826 -0.009066744 0.07947293 0.13497491 0.08612536 0.16173062 -0.11356757
-0.051343538 0.06879805 0.21578512 0.16261935 -0.14817095 -0.07209578 -0.07466217 0.117089376
-0.25659937 -0.057755042 0.08554283 -0.089118235 -0.050268944 -0.22308865 -0.067800745 -0.11561085
0.0050520273 0.21996418 0.05397095 0.24379386 0.120616466 0.0776844 0.2978875 -0.1362524
0.059055705 0.09691079 -0.3478601 -0.1820723 -0.12108208 0.094659746 -0.044230673 0.14288864
0.19268401 0.20667584 -0.00070690905 -0.10274506 -0.26903728 -0.24081814 -0.10761943 0.12179997
-0.06366103 0.21315587 0.22784278 0.060549755 0.1076985 -0.087155595 -0.21153446 -0.06329945
0.0184259 0.1470914 -0.016245442 0.008335654 0.12064977 0.12694663 0.06536972 -0.040046997
0.29066956 0.26127875 -0.06769543 0.20880401 -0.036688916 -0.28926396 -0.018075308 -0.19140258
-0.34381697 0.15920648 -0.037946068 -0.27387458 0.08277512 0.037806876 -0.029996088 0.034715354
0.15482417 0.16584866 0.0799967 0.21855356 0.15960899 0.19191378 -0.070612565 0.03146975
-0.28340316 -0.17066938 -0.20240262 -0.206667 -0.09557384 0.11755426 -0.14512411 0.0014616849
0.14474842 -0.2578894 -0.010787491 0.21492949 -0.00014596386 -0.013385116 -0.20470266 -0.10712489
-0.17350277 0.058447365 0.16882621 0.07924414 0.1785009 0.06113188 0.067133605 0.05821875
-0.04200136 0.1740552 0.101310186 -0.049687535 0.04242135 -0.011627415 0.0051121367 0.015911464
0.17998192 0.083967656 -0.09742067 0.07266537 -0.042903747 -0.14566877 0.17458035 0.15119877
0.20351061 0.19452253 -0.023888197 0.024420585 0.17143199 -0.16215342 -0.12794277 -0.15522504
-0.16626798 -0.1912401 0.052738123 -0.22259855 -0.00024862235 0.19910228 -0.099636085 0.15560597
0.19343859 -0.17535955 0.15903741 0.18525308 -0.024915222 0.08232507 0.006741205 0.0069794166
0.007428209 -0.044915147 -0.24565218 -0.2246307 -0.052769795 -0.06970467 0.1833045 0.19362542
0.13393487 0.10126543 -0.008279067 -0.049167395 0.004692114 0.15362376 0.11097265 0.08325682
0.19134893 -0.06314406 -0.22275339 -0.2449836 0.036643 0.17094278 0.06628407 -0.029041676
0.11810226 0.103754155 -0.026680263 -0.006065317 0.19192414 -0.23873635 -0.17962717 -0.034115747
-0.27744672 0.11311229 0.11884439 -0.06622255 0.25319543 0.18437383 0.015419771 0.12389333
-0.13514882 0.12358005 0.1830346 0.075430706 0.1034788 -0.005768595 0.13478819 0.066932626
-0.09275294 -0.28909996 0.11174139 0.18865456 -0.029137993 -0.09282289 0.15343748 0.0032094829
-0.169776 -0.12038954 0.07641406 -0.09743126 -0.007074125 0.19776465 -0.12734926 0.16013359
0.10157115 0.15006812 -0.13165593 -0.3303924 0.2083948 0.12627465 -0.08580494 0.09789529
0.0045420825 0.16129917 0.13087878 -0.04164893 0.19295765 -0.1341268 0.041543137 -0.02735805
-0.2710075 0.031027261 0.13005537 -0.01558154 -0.11479338 -0.28584188 0.053952716 0.032860264
-0.17525703 0.20139521 0.22209185 0.076232836 -0.030001188 0.12853768 -0.13613339 -0.06429116
00000000: 23a8 483e 83a0 7abb 01e5 5ebe bb4a 353e
00000010: a59c a63d d52b 87be 6e21 c83d e077 2dbe
00000020: efb2 93be a26b e73d ae8c 14bc b4c2 a23d
00000030: dd36 0a3e 7e62 b03d b69c 253e 1d96 e8bd
00000040: 9a4d 52bd fee5 8c3d c6f6 5c3e b085 263e
00000050: 20ba 17be f4a6 93bd 7be8 98bd 8ecc ef3d
00000060: fe60 83be 8d90 6cbd 1431 af3d 9f83 b6bd
00000070: cfe6 4dbd 5a71 64be 1edb 8abd 62c5 ecbd
00000080: 7a8b a53b 4a3e 613e a510 5d3d 19a5 793e
00000090: c405 f73d 0019 9f3d b684 983e c085 0bbe
000000a0: 65e4 713d 2a79 c63d b81a b2be 2971 3abe
000000b0: e2f9 f7bd f8dc c13d 392b 35bd 6651 123e
000000c0: f54e 453e d5a2 533e dd4f 39ba 016c d2bd
000000d0: 41bf 89be 0899 76be 9367 dcbd 4372 f93d
000000e0: b760 82bd 8845 5a3e 9e4f 693e 0503 783d
000000f0: 0891 dc3d a27e b2bd 7d9c 58be 24a3 81bd
00000100: eaf1 963c 219f 163e 2915 85bc 4492 083c
00000110: 3a17 f73d 4cfe 013e 8fe0 853d 5208 24bd
00000120: a4d2 943e 54c6 853e e7a3 8abd b8d0 553e
00000130: 1e47 16bd 681a 94be ab12 94bc 0aff 43be
00000140: c708 b0be 0607 233e 566d 1bbd 4a39 8cbe
00000150: 0186 a93d 62db 1a3d 5bba f5bc b031 0e3d
00000160: 3a8a 1e3e 3bd4 293e 4fd5 a33d 81cc 5f3e
00000170: 8a70 233e 0c85 443e 529d 90bd 6de6 003d
00000180: 381a 91be f4c3 2ebe a242 4fbe 84a0 53be
00000190: 38bc c3bd 4ac0 f03d 6a9b 14be 0296 bf3a
000001a0: ee38 143e 140a 84be 04be 30bc 7a16 5c3e
000001b0: e00d 19b9 3f4d 5bbc 939d 51be 4b64 dbbd
000001c0: b6aa 31be 8166 6f3d c7e0 2c3e c04a a23d
000001d0: f1c8 363e 6c65 7a3d 587d 893d c976 6e3d
000001e0: 9e09 2cbd 873b 323e b77b cf3d 2885 4bbd
000001f0: 02c2 2d3d ea80 3ebc b683 a73b c258 823c
00000200: 2e4d 383e 3cf7 ab3d 7d84 c7bd 95d1 943d
00000210: d7bb 2fbd 322a 15be 31c5 323e dad3 1a3e
00000220: 1665 503e ea30 473e 2eb1 c3bc ae0d c83c
00000230: de8b 2f3e 8c0b 26be 6e03 03be 50f3 1ebe
00000240: 2742 2abe 72d4 43be ee03 583d e0f0 63be
00000250: 8759 82b9 78e1 4b3e 010e ccbd 2c57 1f3e
00000260: c414 463e 7491 33be b4da 223e fcb2 3d3e
00000270: 021b ccbc 0c9a a83d 54e5 dc3b 97b3 e43b
00000280: 5568 f33b f2f8 37bd 3f8c 7bbe 9705 66be
00000290: 2425 58bd 52c1 8ebd 2db4 3b3e be45 463e
000002a0: 3926 093e 4064 cf3d eda4 07bc c063 49bd
000002b0: 4ec0 993b 8c4f 1d3e a145 e33d 8d82 aa3d
000002c0: f9f0 433e ac51 81bd 7719 64be fbdc 7abe
000002d0: f816 163d a00b 2f3e f1bf 873d cfe8 edbc
000002e0: 99df f13d 0f7d d43d 9190 dabc 91bf c6bb
000002f0: c387 443e 4d77 74be 2ff0 37be f4bc 0bbd
00000300: 7f0d 8ebe 6ba7 e73d b064 f33d b09f 87bd
00000310: d5a2 813e 7ecc 3c3e 35a3 7c3c c9bb fd3d
00000320: 7464 0abe 8a17 fd3d 6c6d 3b3e 6a7b 9a3d
00000330: b1ec d33d 7b06 bdbb ea05 0a3e f913 893d
00000340: 41f5 bdbd e904 94be abd8 e43d a92e 413e
00000350: cdb2 eebc ed19 bebd b71e 1d3e 3056 523b
00000360: c2d9 2dbe cb8e f6bd fa7e 9c3d 0a8a c7bd
00000370: 10ce e7bb d182 4a3e d867 02be 0ffa 233e
00000380: 8904 d03d 75ab 193e d0d0 06be 3129 a9be
00000390: 7265 553e 244e 013e 80ba afbd 537d c83d
000003a0: c0d5 943b 9c2b 253e 1605 063e 1298 2abd
000003b0: b196 453e 8958 09be 2329 2a3d fd1d e0bc
000003c0: 7fc1 8abe e22c fe3c 3c2d 053e b749 7fbc
000003d0: cb18 ebbd de59 92be 86fd 5c3d 7c98 063d
000003e0: 9476 33be 8c3a 4e3e 0c6c 633e f61f 9c3d
000003f0: 0dc5 f5bc 629f 033e 8d66 0bbe 15ab 83bd

sequential/conv2d/BiasAdd/ReadVariableOp:0 f4 [32]
0.022911025 -0.03540882 -0.0024978307 -2.5478672e-05 0.041279703 -0.0007147914 -0.009547381 -0.032156356
0.042042214 -0.0326891 9.28608e-05 -0.0069540474 7.731497e-05 -0.024864167 -0.005537821 -0.0012267315
-0.00703116 -0.0145138595 -0.013922564 -0.0013228887 -0.03059754 -0.012463659 -0.013910224 -0.017939053
-0.021323616 -0.011628049 -0.014735692 0.008741549 -0.005458095 0.023799641 0.028718 0.017643247
00000000: e7af bb3c d708 11bd a5b2 23bb 08bb d5b7
00000010: e814 293d d760 3bba 9e6c 1cbc 62b6 03bd
00000020: 7534 2c3d 01e5 05bd 43be c238 c7de e3bb
00000030: 2924 a238 f0af cbbc 9c76 b5bb 47ca a0ba
00000040: a565 e6bb 8acb 6dbc 771b 64bc c764 adba
00000050: b1a7 fabc 6034 4cbc b5e7 63bc ecf4 92bc
00000060: ddae aebc 9383 3ebc f96d 71bc b738 0f3c
00000070: d2d9 b2bb 77f7 c23c 0342 eb3c 9288 903c
